check_point_spores/chk_last.pt (torch, 756303 bytes, 255 tensors)

enc_1.c1.conv.conv.weight f4 [8, 1, 3, 3]
0	0xbd46783c	-0.04845451
1	0x3e924e99	0.2857559
2	0x3e402550	0.18764234
3	0x3e528360	0.20557928
4	0x3e7776f6	0.24166474
5	0x3da9f3f6	0.08298485
6	0xbdedf67d	-0.116192795
7	0x3e0d8999	0.1382202
8	0x3d0471be	0.032335036
9	0xbdbbedda	-0.09176226
10	0x3dda2ff9	0.10653681
11	0xbd4f2cf6	-0.050579987
12	0xbe90b6a8	-0.28264356
13	0x3dc453c7	0.09586292
14	0x3d1052ee	0.035235338
15	0x3d910a6a	0.070820644
16	0x3e2fedf9	0.17180623
17	0x3d15bcaf	0.036556896
18	0x3e5a9803	0.2134705
19	0xbe588404	-0.2114411
20	0x3c6c462e	0.014421029
21	0xbcbe273b	-0.023212066
22	0x3e0df4d5	0.13862927
23	0x3da47dbc	0.080317944
24	0xbe90de79	-0.28294733
25	0xbc828b24	-0.015935488
26	0xbdf1f62d	-0.118145324
27	0xbe2045cc	-0.15651625
28	0x3ea2c912	0.3179403
29	0x3e5d7275	0.21625693
30	0xbe78ac92	-0.2428458
31	0x3e650bdf	0.2236781
32	0x3e64e725	0.223538
33	0x3eb15613	0.34635982
34	0x3e9631d8	0.29334903
35	0x3e18911a	0.14899102
36	0xbe8c1028	-0.27356076
37	0x3eaccdd8	0.33750796
38	0x3e5c8930	0.21536708
39	0x3d8594ce	0.06522523
40	0x3e04343e	0.12910554
41	0x3e1c318f	0.1525328
42	0x3e93a599	0.28837278
43	0xbcfe51a2	-0.031044785
44	0xbe884d1c	-0.2662133
45	0xbe94fa7d	-0.29097357
46	0xbe3f859f	-0.18703316
47	0xbd49c0f1	-0.04925627
48	0xbdf0e26f	-0.11761939
49	0xbdafa78b	-0.08576878
50	0xbdc5cd68	-0.09658319
51	0x3e6b7d8e	0.22997114
52	0xbe0dff82	-0.13867
53	0x3d0d092b	0.03443257
54	0x3e2872b1	0.16450001
55	0xbd90d581	-0.07071973
56	0xbd3444c2	-0.044010885
57	0x3e86540e	0.26236004
58	0xbe33a4fb	-0.17543404
59	0x3e56195d	0.20908113
60	0xbd1aa529	-0.037755165
61	0x3e9ce87f	0.3064613
62	0x3e56fb35	0.20994265
63	0x3e9ed558	0.31022143
64	0xbe473b93	-0.1945632
65	0xbe378a81	-0.17923929
66	0x3d905289	0.07046992
67	0xbd978c54	-0.07399812
68	0xbe608400	-0.21925354
69	0x3e6a6485	0.22889908
70	0xbe14709b	-0.1449608
71	0x3e116f37	0.14202581

enc_1.c1.conv.conv.bias f4 [8]
0	0xbe5992fc	-0.21247476
1	0x3d8cade9	0.06869108
2	0xbe330d35	-0.17485507
3	0x3d0b4ba3	0.03400768
4	0x3d872e7e	0.066006646
5	0xbe7acd0c	-0.24492282
6	0x3e9e774a	0.30950385
7	0xbbc232e1	-0.0059264754

enc_1.c1.conv.norm.weight f4 [8]
0	0x3f83b0d9	1.0288345
1	0x3f77e369	0.96831375
2	0x3f823996	1.0173824
3	0x3f731f0e	0.9496926
4	0x3f7e595f	0.9935512
5	0x3f81a253	1.0127662
6	0x3f7d1ccf	0.98872083
7	0x3f82807c	1.019546

enc_1.c1.conv.norm.bias f4 [8]
0	0x3d098ac0	0.033579588
1	0x3c781693	0.015142101
2	0x3d0b8a00	0.034067154
3	0x3d1c4201	0.038148884
4	0x3d9f6ee6	0.07784824
5	0x3d83de9c	0.06438944
6	0x3cebd845	0.028789649
7	0x3dc5e9e4	0.09663752

enc_1.c1.conv.norm.running_mean f4 [8]
0	0xbe26d5cd	-0.16292496
1	0x3d95d8d5	0.07316748
2	0xbe3d58e8	-0.18490946
3	0x3dd1d9f8	0.10246652
4	0x3dc5d2ef	0.09659373
5	0xbe8f60d8	-0.28003573
6	0x3eb396ce	0.35075992
7	0xbc18197b	-0.009283419

enc_1.c1.conv.norm.running_var f4 [8]
0	0x3969526a	0.00022251313
1	0x3904dd06	0.00012670839
2	0x3938f68f	0.00017639458
3	0x39fd9e8f	0.00048374056
4	0x39bdfd35	0.00036237543
5	0x3949469b	0.00019195156
6	0x398cee0d	0.00026880243
7	0x398e8271	0.00027181537

enc_1.c2.conv.conv.weight f4 [8, 8, 3, 3]
0	0xbdd4150b	-0.10355576
1	0xbdb53184	-0.08847335
2	0x3dce5745	0.10075239
3	0xbd36a1c9	-0.044587884
4	0xbd4addeb	-0.049528044
5	0xbd337647	-0.04381397
6	0xbd929685	-0.071576156
7	0x3d677d20	0.056515813
8	0xbcb1c143	-0.0216986
9	0xbdd85f47	-0.10565048
10	0x3dbca54c	0.092112154
11	0xbdaa9085	-0.08328346
12	0x3c003866	0.007825946
13	0xbdc0ef32	-0.09420623
14	0xbde6fe4a	-0.112789705
15	0xbda37317	-0.07980936
16	0x3da085d6	0.07838027
17	0xbdbfc220	-0.09363198
18	0x3d124714	0.035712317
19	0x3e0a72d1	0.13520361
20	0x3abaafb2	0.0014243035
21	0xbd7ff080	-0.062485218
22	0xbe182635	-0.14858325
23	0x3c447adf	0.011992185
24	0xbdf64f9e	-0.120269045
25	0xbd84d1f5	-0.064853586
26	0x3d28827a	0.041140057
27	0xbc9203ae	-0.01782402
28	0x3d5063e8	0.050876528
29	0xbd2112a9	-0.039324436
30	0x3d882eef	0.06649577
31	0xbdc04fbb	-0.093902074
32	0x3c458ab1	0.012056992
33	0xba225241	-0.00061920664
34	0xbba581ef	-0.0050508897
35	0xba15f94b	-0.00057210465
36	0x3d7ed99f	0.06221926
37	0xbd8f85e2	-0.07007958
38	0x3d1401eb	0.03613464
39	0xbdbc35d7	-0.09189957
40	0x3dfd8701	0.123792656
41	0xbd0549cb	-0.032541078
42	0x3d84f009	0.064910956
43	0x3dc0ddf2	0.09417333
44	0x3de7df58	0.11321896
45	0xbd38cbdf	-0.0451163
46	0x3b499ce3	0.0030763678
47	0x3d84eec6	0.06490855
48	0x3d2e18b6	0.042504035
49	0xbd4b75b4	-0.049672797
50	0x3db47d98	0.088130176
51	0xbdb18956	-0.08668773
52	0x3ce23a2a	0.027615625
53	0xbc3b8b67	-0.01144681
54	0xbda77bb0	-0.081778884
55	0xbddddfe3	-0.10833719
56	0xbccdc73e	-0.02511942
57	0x3cdd0eb2	0.026984546
58	0xbd911fc3	-0.07086136
59	0x3d13f487	0.03612187
60	0x3da628c6	0.08113246
61	0x3c0b9ca8	0.0085212365
62	0x3c2c8def	0.0105318865
63	0xbd4bfef7	-0.0498037
64	0xbdc577a5	-0.09641961
65	0xbd126a92	-0.035746165
66	0x3dedcd12	0.1161138
67	0xbd507b36	-0.050898753
68	0x3db30f3a	0.087431386
69	0x3de42630	0.11140096
70	0xbcf8be06	-0.030364048
71	0xbb4c6ffc	-0.0031194678
72	0x3dec1ecf	0.11529314
73	0x3d7d6520	0.06186402
74	0x3d918aff	0.071065895
75	0xbd3164ae	-0.043308906
76	0xbde7b95a	-0.1131465
77	0xbc62fd0b	-0.013854275
78	0xbda4366b	-0.08018192
79	0xbd211c22	-0.03933347
80	0xbcd7566a	-0.026286323
81	0xbdd5235d	-0.10407136
82	0x3d509ceb	0.0509309
83	0x3abe7e20	0.0014533438
84	0x3d966a3a	0.0734448
85	0xbdd85ab0	-0.10564172
86	0x3b268f87	0.0025415139
87	0x3d9cf678	0.07664198
88	0x3cd62ac4	0.02614344
89	0x3d986b65	0.07442359
90	0x3e06499e	0.1311402
91	0x3db19126	0.08670263
92	0xbdb33c16	-0.08751695
93	0x3df0559f	0.11735081
94	0x3dfa2066	0.12213211
95	0x3c71bd05	0.014754538
96	0xbb840002	-0.0040283212
97	0xbd82ad45	-0.06380705
98	0x3db76350	0.08954489
99	0x3d67c849	0.05658749
100	0x3db2dbb1	0.08733309
101	0xbb701a62	-0.003663682
102	0xbd873d37	-0.06603473
103	0xbdcedd70	-0.101008296
104	0x3d25d665	0.040487666
105	0x3da4be0e	0.080440626
106	0xbdb176e8	-0.08665258
107	0xbd089c2f	-0.033352073
108	0xbdcd5d1e	-0.10027526
109	0x3d072a1c	0.032999143
110	0x3d5107bf	0.051032778
111	0xbdd4020e	-0.103519544
112	0x3ab9c2da	0.001417245
113	0xbcaee0e9	-0.02134748
114	0x3d614436	0.05499669
115	0xbdcc50e6	-0.09976368
116	0xbb2c6d34	-0.0026310207
117	0xbc95fa3e	-0.018307801
118	0xbdf95898	-0.12175101
119	0xbdcbe1df	-0.09955191
120	0xbcee99b8	-0.029126033
121	0xbdb93db5	-0.09044973
122	0x3dfd7c08	0.12377173
123	0x3e09e1f4	0.134651
124	0xbd9b8c52	-0.07595123
125	0x3c9381e0	0.018006265
126	0x3dd2a6e6	0.102857396
127	0x3c82f9f8	0.015988335
128	0xbce682cf	-0.028138546
129	0xbdbb8e58	-0.09158009
130	0xbc9310a0	-0.017952263
131	0x3dc85ffc	0.097839326
132	0x3d9abc54	0.07555452
133	0xbd1ad684	-0.037802234
134	0x3ce5ea30	0.02806577
135	0x3dcb462b	0.09925493
136	0xbda72720	-0.081617594
137	0xbd01d4fc	-0.03169726
138	0xbae06632	-0.00171203
139	0x3d9c9a43	0.076466106
140	0x3db5f6b4	0.088849455
141	0x3dcb5da0	0.09929967
142	0x3cf2d755	0.029643694
143	0x3d89108e	0.06692611
144	0x3aef99a7	0.0018280045
145	0x3d3768e4	0.044777766
146	0x3ce480e3	0.02789349
147	0x3dfb5dc9	0.122737475
148	0x3d41b0cb	0.047287744
149	0xbdb0eb77	-0.08638661
150	0x3d2d572b	0.042319458
151	0xbddaf375	-0.10690967
152	0x3d991396	0.07474439
153	0xbda62189	-0.08111865
154	0x3d86df85	0.06585602
155	0xbd9aee1f	-0.07564949
156	0x3dc22061	0.09478832
157	0xbd906d23	-0.07052066
158	0x3d1656c1	0.03670383
159	0x3d4bed2d	0.049786735
160	0xbd9e283f	-0.0772252
161	0x3d68e9ca	0.056863584
162	0xbd8e2b90	-0.06941903
163	0xbdbdf240	-0.09274721
164	0xbd58438a	-0.052798785
165	0xbdd8531b	-0.10562726
166	0xbdda47bc	-0.106582135
167	0xbc3604df	-0.01110956
168	0x3d9323fa	0.07184596
169	0xbc96ac4f	-0.01839271
170	0xbd6306c2	-0.055426367
171	0x3cec5a14	0.028851546
172	0x3d358915	0.044320185
173	0xbcc82f92	-0.024436746
174	0x3db73692	0.08945955
175	0xbddde73b	-0.10835119
176	0x3ddb2079	0.10699553
177	0x3daf305a	0.08554144
178	0x3d383c2c	0.04497926
179	0x3d7accd7	0.061230507
180	0x3d263f28	0.040587574
181	0x3c82aa75	0.01595042
182	0x3d79cd6d	0.060986925
183	0x3d5304c9	0.051518235
184	0xbd09df0e	-0.033659987
185	0xbda652b8	-0.08121246
186	0x3e04aa5c	0.12955612
187	0xbcdb31cf	-0.026757149
188	0xbd4abc42	-0.049495943
189	0xbd9b0b7e	-0.07570551
190	0xbdd802b1	-0.10547388
191	0xbdff7df0	-0.124751925
192	0xbdcb57eb	-0.099288784
193	0xbbcfb0c5	-0.0063382112
194	0xbc14f43e	-0.009091435
195	0xbdeb2ab2	-0.11482753
196	0x3d8964ab	0.06708654
197	0x3ca859e3	0.020550674
198	0x3db55dcc	0.08855781
199	0xbd2fd241	-0.042925123
200	0xbd0a2c56	-0.03373369
201	0x3d05ee06	0.0326977
202	0x3e121d99	0.14269103
203	0x3c175271	0.009235964
204	0x3ddb1bd8	0.1069867
205	0x3d1a2111	0.03762919
206	0xbd4aa54a	-0.04947404
207	0x3e06b86a	0.13156286
208	0x3d1c5d0e	0.03817468
209	0xbd88967f	-0.0666933
210	0xbc3e75f0	-0.011624798
211	0x3dc84b09	0.09779937
212	0x3cdcbf09	0.026946561
213	0xbe08bcdd	-0.13353296
214	0x3d9c339e	0.07627033
215	0xbd406124	-0.04696764
216	0xbda41fdd	-0.0801389
217	0x3ddc9801	0.1077118
218	0xbd5056bc	-0.050863966
219	0xbdd2b4b8	-0.102883756
220	0x3daa07c4	0.083022624
221	0xbdd2cb4b	-0.10292681
222	0xbd89c9db	-0.06727954
223	0x3db57143	0.088594936
224	0xbe0279f6	-0.12741837
225	0x3d8b3d54	0.06798807
226	0xbd657b78	-0.056025952
227	0x3d8f8c83	0.07009222
228	0x3da8c802	0.082412735
229	0xbbbf5392	-0.00583882
230	0xbcbdafa7	-0.023155047
231	0x3d143c4d	0.03619032
232	0xbde37909	-0.1110707
233	0xbde72e08	-0.11288077
234	0x3c77f8dc	0.015135016
235	0x3d842591	0.06452478
236	0xbdde9ef9	-0.108701654
237	0x3d0e1c38	0.03469488
238	0x3d6b58ca	0.057457723
239	0x3d4b0947	0.049569394
240	0x3dbedd4f	0.09319555
241	0xbde0b14f	-0.10971319
242	0xbd193127	-0.03740039
243	0xbdf02ca5	-0.11727265
244	0xbd96b2e9	-0.07358343
245	0xbdb8c865	-0.09022597
246	0x3d2c4a78	0.042063206
247	0xbc92b51d	-0.017908627
248	0x3ccbc83b	0.02487575
249	0x3cce8c7f	0.025213478
250	0x3d896dad	0.06710372
251	0xbcef73e6	-0.02923007
252	0xbd675a2a	-0.05648247
253	0x3dc332fa	0.095312074
254	0xbd4fb57a	-0.05071018
255	0xbdaedd37	-0.08538287

enc_1.c2.conv.conv.bias f4 [8]
0	0x3d8ed0f4	0.069734484
1	0x3dd94c3b	0.10610243
2	0x3c1900d4	0.009338576
3	0xbde0658d	-0.10956869
4	0xbdbe728e	-0.09299193
5	0xbd19a570	-0.03751129
6	0x3d55af85	0.05216934
7	0x3d21e16b	0.039521616

enc_1.c2.conv.norm.weight f4 [8]
0	0x3f7c17e6	0.98473966
1	0x3f794cd3	0.9738285
2	0x3f82f043	1.0229572
3	0x3f810e21	1.0082437
4	0x3f81f96b	1.0154241
5	0x3f82d6e9	1.0221835
6	0x3f7dcb4d	0.9913834
7	0x3f76c183	0.96389025

enc_1.c2.conv.norm.bias f4 [8]
0	0x3d8d56fc	0.069013566
1	0x3df52e07	0.1197167
2	0x3e13ebf4	0.14445478
3	0x3d5dce40	0.054151773
4	0x3cbefd32	0.023314092
5	0x3dc2c134	0.09509507
6	0xbc71e5dd	-0.014764276
7	0x3c829f61	0.015945138

enc_1.c2.conv.norm.running_mean f4 [8]
0	0xbe1b22a8	-0.15149939
1	0x3eabab92	0.33529335
2	0x3d654efa	0.05598352
3	0xbe1a26ad	-0.15053816
4	0xbd88932c	-0.06668696
5	0xbd81c2fc	-0.063360184
6	0x3d41fe9c	0.047361955
7	0xbda40a92	-0.080098286

enc_1.c2.conv.norm.running_var f4 [8]
0	0x3e233c1a	0.15940896
1	0x3e358019	0.17724647
2	0x3e70bcfd	0.23509593
3	0x3e1c1d85	0.15245636
4	0x3e40294f	0.18765758
5	0x3e17b8a2	0.14816526
6	0x3e1ea13a	0.1549119
7	0x3e0ca5c0	0.13735104

enc_2.c1.conv.conv.weight f4 [16, 8, 3, 3]
0	0xbda61559	-0.081095405
1	0xbc1ff65e	-0.009763328
2	0x3caeba76	0.021329146
3	0xbc31dbd4	-0.010855634
4	0xbd1f325e	-0.038866393
5	0x3d6d3c83	0.057919037
6	0xbda3f859	-0.08006353
7	0x3cf9da9d	0.03049975
8	0x3ccbf7ab	0.02489837
9	0xbb609057	-0.003426572
10	0x3d8bbccc	0.068231195
11	0x3dbef4a5	0.09324006
12	0x3db4a81d	0.088211276
13	0xbd66e8e0	-0.05637443
14	0x3dc64d39	0.09682698
15	0xbc047ad3	-0.008085924
16	0xbc4ae8ee	-0.012384636
17	0xbd262e3e	-0.040571444
18	0xbbadddbb	-0.0053059733
19	0xbd76114f	-0.0600751
20	0x3dec04be	0.11524342
21	0x3d58b787	0.0529094
22	0x3b9d4370	0.004799299
23	0xbd869167	-0.06570702
24	0xbd0df911	-0.034661356
25	0xbdd29bfa	-0.102836564
26	0xbe03b451	-0.12861754
27	0x3ddf95a8	0.109172165
28	0x3d5554fc	0.052083
29	0xbdb428e7	-0.08796864
30	0x3d1a1816	0.037620626
31	0xbd8ffd1e	-0.070307
32	0xbce03407	-0.027368559
33	0xbdffc1d0	-0.12488139
34	0x3db825a5	0.08991555
35	0x3d944859	0.07240362
36	0xbdb87a55	-0.09007708
37	0x3cf2df5c	0.029647522
38	0x3dbe4753	0.09290948
39	0xbdbde654	-0.09272447
40	0xbdd61a06	-0.10454182
41	0xbc4a1184	-0.012333278
42	0xbcf200b5	-0.029541353
43	0xbdec0b67	-0.11525612
44	0x3d102c87	0.035198715
45	0x3dcbf6df	0.09959196
46	0x3d0e5d61	0.03475702
47	0xbc917eed	-0.017760718
48	0xbd9e08aa	-0.07716496
49	0x3d0a6704	0.03378965
50	0x3dc92e0a	0.098232344
51	0x3d4aaabe	0.04947924
52	0xbdb9316a	-0.09042628
53	0x3ca75ec5	0.020430932
54	0xbdc41298	-0.09573859
55	0x3dc38997	0.095477276
56	0xbd387558	-0.045033783
57	0xbd86042d	-0.06543765
58	0x3cd93746	0.026515614
59	0xbd172cf9	-0.036908124
60	0x3d1bcfcb	0.038039964
61	0xbe09034b	-0.13380162
62	0xbab9bc3f	-0.0014170482
63	0xbd7702ed	-0.060305525
64	0x3d266a29	0.040628586
65	0xbd596048	-0.053070337
66	0x3cc25a7c	0.023724787
67	0x3e0aef9d	0.13567968
68	0x3cd79587	0.026316417
69	0x3d4d5aca	0.05013541
70	0x3c09bf34	0.008407403
71	0x3bee7cc7	0.007278058
72	0xbcf399f6	-0.0297365
73	0x3d9f4499	0.07776756
74	0xbcb996f2	-0.022654984
75	0x3d89ca08	0.067279875
76	0x3da6fb01	0.08153344
77	0x3d8d4c82	0.06899358
78	0x3d642205	0.055696506
79	0xbd906eb8	-0.07052368
80	0x3ddb1756	0.1069781
81	0xbdb0395f	-0.08604693
82	0xbdba4ef2	-0.09097089
83	0x3d15897a	0.03650806
84	0xbe03173f	-0.12801836
85	0x3ddc96f9	0.10770983
86	0x3db699bd	0.08916042
87	0xbdcd692d	-0.10029826
88	0xbd7e09a4	-0.062020913
89	0x3da4711c	0.080293864
90	0xbc9958c2	-0.01871908
91	0xbdc869b1	-0.09785784
92	0xbd282cd1	-0.041058365
93	0xbbbfcc99	-0.0058532474
94	0x3d922ea8	0.07137805
95	0x3dc796dc	0.09745571
96	0x3d883b6c	0.06651959
97	0xbd74d1bc	-0.05977033
98	0xbd393646	-0.045217775
99	0xbd981b27	-0.07427054
100	0xbdb39b67	-0.08769875
101	0x3db548cc	0.088517755
102	0xbd77ae84	-0.060469165
103	0xbdfe037c	-0.12403008
104	0xbd9f843a	-0.07788892
105	0x3c4dd713	0.012563485
106	0x3de209f1	0.110370524
107	0x3cce7f32	0.025207136
108	0x3d09b155	0.033616383
109	0x3db32f4b	0.08749255
110	0x3c9bfcba	0.019041408
111	0x3d610a0e	0.05494123
112	0xbc75e2a3	-0.015007648
113	0x3e12932d	0.14313956
114	0xbdc67a1c	-0.09691259
115	0xbd9ea0a9	-0.07745487
116	0x3c323d25	0.010878836
117	0xbd876f03	-0.06612971
118	0x3d12470d	0.03571229
119	0xbd2f876a	-0.04285375
120	0x3d37253a	0.044713236
121	0xbd52ca87	-0.051462676
122	0x3d6dda9a	0.058069803
123	0x3cd2679c	0.02568417
124	0x3d8315e1	0.064006574
125	0x3da8a29f	0.082341425
126	0x3dfb4a76	0.12270062
127	0xbce40684	-0.027835138
128	0xbd4dc2b0	-0.050234497
129	0x3d1a6282	0.0376916
130	0xbd869844	-0.06572011
131	0xbdc743fa	-0.097297624
132	0xbdb94ef7	-0.090482645
133	0x3d65c06e	0.05609172
134	0x3d8ff3e7	0.070289426
135	0x3be6f3bf	0.0070481
136	0xbdaba240	-0.08380556
137	0x3dd6ae2e	0.10482441
138	0x3d10561d	0.035238374
139	0x3d3a1f9e	0.04544031
140	0xbda1b8f8	-0.07896608
141	0xbd40d77a	-0.047080494
142	0xbd9abe43	-0.07555821
143	0xbdbd0a15	-0.092304386
144	0x3d3fec63	0.046856295
145	0x3cb5dfd4	0.022201456
146	0x3dd5f374	0.104468256
147	0xba9ad871	-0.0011813772
148	0xbd3c94b3	-0.046040248
149	0x3b5f1268	0.003403807
150	0xbe0a85f1	-0.13527657
151	0x3b5dbd2d	0.0033834681
152	0x3ca40213	0.02002052
153	0x3da4b29d	0.0804188
154	0x3d022731	0.031775657
155	0xbd447e0e	-0.047971778
156	0xbdb676a2	-0.08909346
157	0x3ccfafcd	0.025352383
158	0x3d87e5dd	0.0663564
159	0xbc9f64c9	-0.019457238
160	0xbd6e9fc3	-0.05825783
161	0xbc8a21ab	-0.016861757
162	0xbdb22f8e	-0.087004766
163	0x3dffdd0b	0.124933325
164	0x3db1eaa3	0.086873315
165	0x3e01fb50	0.12693524
166	0x3c2c8a56	0.010531029
167	0x3c9bba33	0.019009685
168	0x3d2e9a81	0.042627815
169	0xbd9f40bb	-0.07776018
170	0xbdd7b50f	-0.10532581
171	0x3c7680a7	0.015045322
172	0x3d4ebc8a	0.050472774
173	0x3d110283	0.035402786
174	0x3ccdfac6	0.025143992
175	0xbdb7aa1c	-0.08967993
176	0xbd506155	-0.050874073
177	0x3d95194c	0.072802156
178	0xbb03e9b9	-0.0020128323
179	0x3d8f32e1	0.06992126
180	0x3d234199	0.03985748
181	0xbd9300a7	-0.07177859
182	0xbc06e698	-0.008233689
183	0xbcfe48dc	-0.031040601
184	0xbd411d0c	-0.047146842
185	0xbda7d252	-0.08194412
186	0x3cf40975	0.029789666
187	0x3d68cf8d	0.05683856
188	0xbd85dbe4	-0.065360814
189	0xbd6dcde5	-0.058057684
190	0xbe04c577	-0.12965952
191	0x3c1beb2c	0.009516519
192	0xbdd2131b	-0.1025755
193	0x3ce5f4cd	0.028070832
194	0xbdcb655d	-0.09931443
195	0xbdd81bd0	-0.1055218
196	0x3dbc8df1	0.09206761
197	0xbd49dbfc	-0.04928206
198	0x3d84e1e6	0.06488399
199	0x3dbb29fb	0.091388665
200	0xbba921c5	-0.0051614963
201	0xbd3c5d61	-0.04598749
202	0x3da6e1ca	0.081485346
203	0x3dfae0ae	0.122498855
204	0xbe001794	-0.12508994
205	0x3cf17238	0.029473409
206	0xbde738f4	-0.1129016
207	0x3d64b045	0.055832166
208	0x3ddebf23	0.108763
209	0xbda15afb	-0.07878681
210	0xbdb565c4	-0.08857301
211	0xbd47f2e9	-0.04881564
212	0x3c12ec65	0.008967494
213	0xbda0693c	-0.07832572
214	0xbca86741	-0.020557048
215	0x3d9ce967	0.076617055
216	0x3d45dc9d	0.048306096
217	0x3da7726a	0.081761196
218	0xbb7e165f	-0.0038770658
219	0xbd3a0b1f	-0.045420762
220	0x3d86d922	0.065843835
221	0x3da72087	0.08160501
222	0xbc3568d9	-0.011072361
223	0x3d29a9f4	0.041421846
224	0xbdad439d	-0.08460162
225	0xbdaec0b5	-0.0853285
226	0x3d56e9f0	0.052469194
227	0x3e0eb513	0.13936262
228	0xbd0cef6e	-0.034408025
229	0x3e0b0806	0.1357728
230	0xbdb86b02	-0.09004785
231	0x3d293a93	0.041315626
232	0xba17d8e3	-0.00057925115
233	0x3d485cce	0.04891663
234	0x3d8f1639	0.069866605
235	0xbdf6e248	-0.120548785
236	0x3dbf5666	0.09342651
237	0x3da35377	0.07974904
238	0xbd08ab35	-0.0333664
239	0xbddfdba5	-0.10930566
240	0xbde3049b	-0.11084863
241	0xbde2f2d0	-0.11081469
242	0xbdd5ffff	-0.10449218
243	0x3cfe93f5	0.03107641
244	0xbd15f8a9	-0.036614094
245	0xbd77f5ee	-0.06053727
246	0x3db91e69	0.090390034
247	0x3c11afc5	0.008892004
248	0x3b3612bb	0.002778216
249	0xbc817b8d	-0.015805984
250	0xbdd18dd2	-0.10232128
251	0x3dafd25f	0.08585047
252	0xbb7fabc1	-0.0039012285
253	0xbde1dd8d	-0.110285856
254	0xbe04e0a0	-0.12976313
255	0x3d853142	0.06503536

enc_2.c1.conv.conv.bias f4 [16]
0	0xbd629619	-0.055318926
1	0xbcfb9038	-0.030708417
2	0xbddb906e	-0.10720907
3	0x3c919147	0.017769469
4	0x3dbb7c52	0.091545716
5	0xbd3e3af4	-0.04644294
6	0x3dcf214c	0.10113773
7	0xbcccf5b9	-0.025019513
8	0xbd1ce1c6	-0.03830125
9	0x3bf195f8	0.007372614
10	0xbd05a2ac	-0.03262584
11	0x3d8c84a4	0.06861237
12	0xbc8a26b3	-0.016864156
13	0xbd9dc4c3	-0.07703545
14	0xbd3d6b3d	-0.04624485
15	0xbd4f63fe	-0.05063247

enc_2.c1.conv.norm.weight f4 [16]
0	0x3f808a83	1.004227
1	0x3f77e290	0.9683008
2	0x3f82a4ba	1.020652
3	0x3f7f8e54	0.9982655
4	0x3f7d1274	0.9885628
5	0x3f870bf1	1.0550519
6	0x3f7dec59	0.9918876
7	0x3f792e3a	0.9733616
8	0x3f7cfedb	0.9882638
9	0x3f813e9b	1.0097231
10	0x3f7806a8	0.96885157
11	0x3f7de905	0.99183685
12	0x3f80f264	1.0073972
13	0x3f81cab6	1.0139987
14	0x3f81aa0d	1.013002
15	0x3f7ca1b8	0.98684263

enc_2.c1.conv.norm.bias f4 [16]
0	0x3dd2646a	0.10273059
1	0x3d8364cc	0.0641571
2	0xbbbd5b68	-0.0057787187
3	0x3d4054e5	0.04695596
4	0x3d69e7d4	0.057105854
5	0x3cf53b67	0.029935552
6	0x3db8126d	0.089878894
7	0x3d7c43f3	0.06158824
8	0x3d534f93	0.05158956
9	0x3d025f62	0.031829245
10	0x3d993771	0.07481278
11	0x3d2b143b	0.04176734
12	0x3d74f6bf	0.059805628
13	0x3d10e89a	0.035378076
14	0x3d924380	0.07141781
15	0x3c85347e	0.016260382

enc_2.c1.conv.norm.running_mean f4 [16]
0	0xbe8256ce	-0.25456852
1	0x3bec661c	0.007214321
2	0xbedbf543	-0.42960557
3	0xbf62f64a	-0.8865706
4	0xbd912981	-0.07087994
5	0xbea47c65	-0.32126155
6	0x3de8c774	0.11366168
7	0x3faf995e	1.3718679
8	0x3ec4ece5	0.38461986
9	0x3e25c9df	0.16190289
10	0xbdfb882d	-0.12281833
11	0x3efbd1a7	0.4918339
12	0x3f1b2458	0.6060233
13	0xbe0c966d	-0.13729258
14	0x3e51f954	0.20505267
15	0x3ce81360	0.028329551

enc_2.c1.conv.norm.running_var f4 [16]
0	0x3e441722	0.1914945
1	0x3e53c399	0.20680083
2	0x3e289024	0.16461235
3	0x3e7e1cfc	0.24815744
4	0x3e7538ea	0.23947492
5	0x3eb56258	0.35426593
6	0x3e69a5c7	0.22817145
7	0x3e8503b1	0.2597938
8	0x3e4d956b	0.2007653
9	0x3e45707b	0.19281189
10	0x3e459af4	0.19297391
11	0x3e2f9e2b	0.1715018
12	0x3e69cf28	0.2283293
13	0x3e646c45	0.22306927
14	0x3e3c03dd	0.18360849
15	0x3e845733	0.25847778

enc_2.c2.conv.conv.weight f4 [16, 16, 3, 3]
0	0xb8e5047e	-0.00010920408
1	0x3d4f8c11	0.050670687
2	0xbc41f73e	-0.011838732
3	0x3d331fa6	0.043731354
4	0xbdb97c9f	-0.09056973
5	0x3c223339	0.009899908
6	0xbd86ae33	-0.065761946
7	0xbd901d28	-0.07036811
8	0x3c84fc0b	0.016233465
9	0x3d33673f	0.043799635
10	0xbde2a14e	-0.11065923
11	0xbdbd2b7a	-0.09236808
12	0x3cbeb367	0.023278905
13	0x3c3e2695	0.011605878
14	0xbcc8c257	-0.024506731
15	0xbd47692f	-0.048684295
16	0xbd04bde2	-0.03240765
17	0xbddad42b	-0.10684999
18	0xbd0d6e2c	-0.034528896
19	0x3d8b4fce	0.06802331
20	0xbbaf1268	-0.0053427704
21	0x3d1e2bfb	0.03861616
22	0xbbdbc61d	-0.0067069666
23	0x3d209c88	0.03921178
24	0x3db670d0	0.08908236
25	0xbd230147	-0.03979614
26	0x3deebb27	0.1165679
27	0xbd1035d8	-0.0352076
28	0xbd4226f0	-0.047400415
29	0xbd630852	-0.055427857
30	0x3dcffd4e	0.10155736
31	0xbd805f27	-0.06268149
32	0xbd990abc	-0.074727505
33	0xbd86439d	-0.06555865
34	0xbd64a385	-0.055820007
35	0xbd7b3c1c	-0.06133662
36	0x3d15412a	0.0364391
37	0x38e147f4	0.000107422384
38	0xbd34341b	-0.043995004
39	0x3d50366c	0.05083315
40	0x3c94b2c8	0.018151656
41	0xbda67cba	-0.081292585
42	0x3d0bd966	0.034142874
43	0xbd49a952	-0.049233742
44	0x3ce36443	0.02775777
45	0x3c9d5853	0.019207155
46	0x3d51504e	0.051101975
47	0xbd83eaea	-0.06441291
48	0x3c50be99	0.0127407545
49	0xbd822f95	-0.06356732
50	0x3dca80f8	0.0988788
51	0x3d91fa6b	0.071278416
52	0xbd87d939	-0.06633229
53	0xbd6adfd4	-0.057342365
54	0x3d481295	0.048845846
55	0xbcd674ef	-0.026178805
56	0xbd2dadfc	-0.042402253
57	0xbd2d9541	-0.042378668
58	0xbccc7c95	-0.02496175
59	0x3d1c1839	0.038109038
60	0xbbf53ecb	-0.007484292
61	0xbd727c9a	-0.05920086
62	0x3d2392ab	0.039934795
63	0x3d8815c2	0.06644775
64	0xbc1faa82	-0.009745242
65	0xbd889ec2	-0.06670906
66	0x3cb78117	0.022400422
67	0xbcd9eb0e	-0.02660134
68	0xbdfe186e	-0.12407003
69	0xbd75c9b9	-0.06000683
70	0x3d8f84cf	0.07007753
71	0xbd9cb590	-0.07651818
72	0xbd84852f	-0.06470715
73	0x3d4083e9	0.0470008
74	0x3d352e46	0.044233583
75	0xbb8ade06	-0.004237893
76	0xbd80988c	-0.06279096
77	0xbc8ba41d	-0.017046029
78	0x3d7a0953	0.06104405
79	0x3d14c8bd	0.03632425
80	0x3c37f172	0.011226999
81	0xbc7ce232	-0.015434789
82	0x3d74a449	0.059726987
83	0xbc9999bd	-0.018750066
84	0x3c849a95	0.016186992
85	0x3c9ba919	0.01900153
86	0x3d59acbf	0.05314326
87	0xbdc1a9f9	-0.09456248
88	0x3d5909c0	0.052987814
89	0xbc93f72f	-0.018062202
90	0xbda29c51	-0.07939971
91	0x3ce9a8ae	0.028522816
92	0x3cb535e7	0.02212043
93	0xbd968849	-0.07350213
94	0xbd83fea6	-0.06445055
95	0xbd1f5e9d	-0.03890859
96	0xbdaea621	-0.0852778
97	0xbdc65241	-0.096836574
98	0x3c688f23	0.014194283
99	0x3d4d4881	0.050117973
100	0x3db9580c	0.09049997
101	0xbd7f606a	-0.062347807
102	0x3d8b509a	0.06802483
103	0xbcf156fb	-0.02946042
104	0xbd34790b	-0.044060748
105	0xbd455a6d	-0.04818194
106	0x3b1303bf	0.0022432653
107	0x3dbbf889	0.09178264
108	0x3d2bedaa	0.0419747
109	0xbd43410b	-0.04766945
110	0x3d26830a	0.040652312
111	0xbdb8ee50	-0.090298295
112	0xbdc07ad2	-0.09398426
113	0x3dc1805e	0.09448312
114	0x3d4b69b5	0.049661357
115	0xbd3576e4	-0.044302836
116	0xbc957743	-0.018245345
117	0xbcff68e4	-0.031177945
118	0x3df4b103	0.11947825
119	0x3d8366b9	0.06416077
120	0xbc4e00f0	-0.012573466
121	0x3d59007e	0.052978985
122	0x3d4bcfad	0.049758602
123	0x3caa7d8a	0.020811815
124	0xbd8590d0	-0.065217614
125	0xbd98a3fc	-0.074531525
126	0xbddcd675	-0.10783092
127	0x3d6432a6	0.055712365
128	0xbd8c225d	-0.06842492
129	0xbd790d21	-0.060803536
130	0x3bbed4ae	0.0058236932
131	0xbdad0e45	-0.08449987
132	0xbd8343ff	-0.064094536
133	0xbd9b199f	-0.07573246
134	0xbdaa933c	-0.08328864
135	0x3d8a8b0c	0.06764802
136	0x3ca05008	0.019569412
137	0xbd058ebf	-0.032606836
138	0xbc9dc9d0	-0.01926127
139	0x3d28f31c	0.041247472
140	0xbd875af2	-0.06609143
141	0x3c306422	0.010766061
142	0x3c59e23c	0.013298567
143	0x3d868189	0.065676756
144	0x3d813a2f	0.06309926
145	0x3cb74b13	0.022374665
146	0xbd43414e	-0.0476697
147	0x3d295b1e	0.04134666
148	0xbd3d9178	-0.046281308
149	0x3c9cd610	0.019145042
150	0xbde92881	-0.11384679
151	0x3dab09e2	0.08351494
152	0x3c6bf098	0.014400624
153	0x3c6bbae2	0.014387818
154	0xbb882726	-0.0041550575
155	0xbd0b0aab	-0.03394572
156	0xb7b823c6	-2.1951168e-05
157	0xbd8d24ae	-0.06891762
158	0x3d4841f3	0.04889102
159	0xbcfcbe8e	-0.030852582
160	0x3c7c517b	0.015400286
161	0xbd0ea2c0	-0.03482318
162	0x3d869b5c	0.06572601
163	0x3d529772	0.05141396
164	0xbc48396e	-0.012220724
165	0x3d548e95	0.05189379
166	0xbd2ba8f6	-0.04190918
167	0xbc645984	-0.013937358
168	0x3d1a8b5a	0.037730552
169	0x3da18d4c	0.07888278
170	0x3d242562	0.040074714
171	0x3cc74ba3	0.024328059
172	0x3cb873c1	0.022516133
173	0xbd744315	-0.059634287
174	0xbcf78ade	-0.030217584
175	0x3d744c7d	0.059643257
176	0x3c508d34	0.012728978
177	0x3d5b9dac	0.053617164
178	0x3db9fd50	0.09081519
179	0xbd1c8ab9	-0.038218234
180	0x3da77254	0.08176103
181	0xbd9c9a1c	-0.076465815
182	0x3dba913f	0.09109735
183	0xbd8e8d29	-0.06960518
184	0xbd341e52	-0.04397423
185	0x3d829cc2	0.063775554
186	0x3daecec4	0.08535531
187	0xbc04cb99	-0.008105182
188	0xbcc69b90	-0.0242441
189	0x3dbd83e2	0.0925367
190	0x3dfef5bd	0.124492146
191	0x3d036628	0.032079846
192	0xbd592941	-0.05301786
193	0x3c46772e	0.012113376
194	0xbc037f27	-0.008025921
195	0x3d164e0e	0.036695533
196	0x3c10a2b7	0.008827857
197	0x3de26d60	0.11056018
198	0x3db77928	0.089586556
199	0xbcbb9978	-0.022900328
200	0xbd126b46	-0.035746835
201	0x3cf6543d	0.030069465
202	0x3c26174b	0.010137389
203	0x3d75b21f	0.059984323
204	0x3abad4bb	0.0014254072
205	0xbdd8a390	-0.10578072
206	0xbcc48608	-0.023989692
207	0xbb95d759	-0.0045727906
208	0xbd613ffa	-0.054992653
209	0xbc9342e1	-0.017976226
210	0xbbc086c2	-0.0058754394
211	0x3d6186cd	0.055060197
212	0xbc50940e	-0.0127306115
213	0x3d749d69	0.05972043
214	0xbd781665	-0.060568232
215	0x3d120b57	0.035655346
216	0xbc6902e4	-0.014221881
217	0xbd4afc4d	-0.04955702
218	0xbcc628e5	-0.024189422
219	0x3d99071a	0.07472058
220	0xbd974dc5	-0.0738788
221	0x3b565ea3	0.0032710216
222	0xbd876f19	-0.06612987
223	0x3d89f843	0.06736805
224	0xbd3faf9d	-0.046798337
225	0x3cd8ff42	0.026488904
226	0x3d4c5525	0.049885888
227	0x3d63719a	0.05552826
228	0xbd7b47da	-0.06134782
229	0x3d8ca1c6	0.06866793
230	0x3dd254cd	0.10270081
231	0xbd66192d	-0.056176353
232	0xbd8363d0	-0.06415522
233	0xbd3070f7	-0.04307648
234	0xbc81d11e	-0.015846785
235	0x3dcb35da	0.09922381
236	0x3db7f5a5	0.089824
237	0x3d1e9e09	0.038724933
238	0xbd10585e	-0.035240524
239	0x3cfe550c	0.031046413
240	0xbd1755b6	-0.036946975
241	0x3b78b74b	0.0037951048
242	0xbc071841	-0.008245529
243	0x3d42fb97	0.047603216
244	0x3d4c8695	0.049933035
245	0x3cb928f6	0.02260254
246	0x3cca467e	0.024691816
247	0x3ca23afe	0.01980352
248	0x3c6573f4	0.014004696
249	0xba039024	-0.0005018732
250	0xbdb9bd25	-0.090692796
251	0xbb666acf	-0.0035158878
252	0xbd6d42aa	-0.057924904
253	0xbcbee789	-0.023303764
254	0xbd07e694	-0.03317888
255	0xbdbb28fa	-0.09138675

enc_2.c2.conv.conv.bias f4 [16]
0	0xbcd0e0d9	-0.02549784
1	0xbbf0478f	-0.007332749
2	0x3d3983bd	0.04529165
3	0xbd27c2b6	-0.040957175
4	0x3c0b590f	0.00850512
5	0xbc8c3bcc	-0.017118357
6	0xbd99cc42	-0.07509662
7	0x3d5b62c1	0.053560976
8	0xbcfabaef	-0.030606715
9	0x3b431532	0.0029767272
10	0xbc85c0d6	-0.016327303
11	0x3cea9c47	0.028638972
12	0xbbd8e23e	-0.006618767
13	0x3b3ed08c	0.0029116003
14	0xbcabd052	-0.020973358
15	0x3c38b612	0.011273878

enc_2.c2.conv.norm.weight f4 [16]
0	0x3f78adcf	0.9714021
1	0x3f7886aa	0.9708048
2	0x3f79046c	0.9727237
3	0x3f806a14	1.0032372
4	0x3f78a0dd	0.9712046
5	0x3f804ed6	1.0024059
6	0x3f83a09e	1.0283391
7	0x3f7d5089	0.9895101
8	0x3f834ff3	1.0258774
9	0x3f8b3699	1.0876037
10	0x3f76a8dc	0.9635141
11	0x3f76302b	0.9616725
12	0x3f838116	1.0273769
13	0x3f7e7f36	0.9941286
14	0x3f83133d	1.0240246
15	0x3f7c3159	0.985128

enc_2.c2.conv.norm.bias f4 [16]
0	0x3d89ffef	0.067382686
1	0x3d417698	0.04723224
2	0x3d5462a3	0.05185188
3	0x3d233103	0.039841663
4	0x3db49c4e	0.08818875
5	0x3e0a1872	0.13485888
6	0x3d7c7c9c	0.061642274
7	0x3cf59118	0.029976413
8	0x3da3a0d6	0.079896614
9	0x3d87fb2e	0.066397056
10	0x3d22dd5e	0.039761893
11	0x3d7b7a53	0.061395954
12	0x3dc672b4	0.09689847
13	0x3d6fe04b	0.05856351
14	0x3d8392c0	0.06424475
15	0x3e1493fc	0.14509577

enc_2.c2.conv.norm.running_mean f4 [16]
0	0xbf16af59	-0.5886131
1	0x3b77b534	0.0037797214
2	0x3db69775	0.08915607
3	0x3e84f135	0.25965276
4	0xbe19de23	-0.15026145
5	0xbe52dac0	-0.20591259
6	0x3d82fd29	0.06395943
7	0x3f6c4af2	0.9230186
8	0x3da87103	0.0822468
9	0x3ee119ef	0.43965098
10	0x3d82a8a2	0.063798204
11	0xbcd3495a	-0.025791813
12	0xbe8d8d92	-0.27647072
13	0x3e74d789	0.23910345
14	0xbe156459	-0.14589061
15	0xbcabf3ee	-0.020990338

enc_2.c2.conv.norm.running_var f4 [16]
0	0x3e4c7c9c	0.1996941
1	0x3e3532d0	0.17695165
2	0x3e3b4bf1	0.18290688
3	0x3e3f05cb	0.18654554
4	0x3e569390	0.20954728
5	0x3e4592ba	0.19294253
6	0x3e40d906	0.18832788
7	0x3e4bc008	0.19897473
8	0x3e7c617a	0.2464656
9	0x3ec4868b	0.38383898
10	0x3e56dc72	0.2098253
11	0x3e3c4286	0.18384752
12	0x3e8f751e	0.2801904
13	0x3e19a3d6	0.15003905
14	0x3e7de2ab	0.24793498
15	0x3e4fbf7f	0.20287894

enc_3.c1.conv.conv.weight f4 [32, 16, 3, 3]
0	0x3d2c9e2d	0.042143036
1	0xbdc54e88	-0.09634119
2	0xbd7210d6	-0.059098087
3	0x3bf30da4	0.0074173976
4	0xbd34dcc0	-0.044155836
5	0xbd90e2e3	-0.07074525
6	0xbd41f51b	-0.04735289
7	0xbde27398	-0.11057204
8	0x3d937c19	0.07201404
9	0x3d706f46	0.05869987
10	0xbce37bf2	-0.027769063
11	0xbcefa2e9	-0.029252486
12	0x3d8db3e9	0.06919081
13	0xbd3d2335	-0.046176154
14	0x3d470d94	0.048596933
15	0x3aa71075	0.0012745993
16	0xbd575386	-0.05256989
17	0x3b301cd3	0.002687265
18	0xbdaf80a9	-0.08569462
19	0xbda0d5a2	-0.07853247
20	0xbcbab1fa	-0.022789944
21	0xbd77f705	-0.06053831
22	0x3c35da6a	0.011099437
23	0x3d559f3d	0.052153815
24	0x3cdb2d2e	0.026754942
25	0x3ce09d27	0.027418686
26	0xbccf9817	-0.025341077
27	0x3ded593e	0.11589287
28	0x39df5128	0.0004259434
29	0xbcf87e6e	-0.030333724
30	0xbdc9c83b	-0.09852644
31	0x3c47ecce	0.012202455
32	0xbc2af67e	-0.010434745
33	0x3d6be51c	0.057591543
34	0xbda1fdf5	-0.079097666
35	0xbcd4c0fe	-0.025970932
36	0x3bc6ddd2	0.0060689235
37	0x3d866cc0	0.06563711
38	0xbc9ab948	-0.018887177
39	0xbda48262	-0.08032681
40	0x3c5d3088	0.01350034
41	0xbc43ac37	-0.011942915
42	0xbcf8cd31	-0.03037128
43	0xbd93b982	-0.07213117
44	0x3d9983dd	0.07495854
45	0xbcc0b9da	-0.02352612
46	0x3dab6bac	0.08370146
47	0xbc32495f	-0.010881751
48	0x3d1a3280	0.037645817
49	0x3d44c369	0.04803792
50	0xbd29fec3	-0.041502725
51	0xbd9179a5	-0.0710328
52	0x3c09e9a2	0.008417519
53	0x3d6adc51	0.057339016
54	0xbc8e4aac	-0.01736959
55	0x3ce04871	0.027378293
56	0xbd6066c7	-0.054785516
57	0xbd9c10f6	-0.076204225
58	0x3dbf7c53	0.09349885
59	0x3cf6276d	0.030048097
60	0xbd4d5dd6	-0.050138317
61	0x3d542cef	0.051800665
62	0xbd51edc1	-0.05125213
63	0xbd7b8fb5	-0.061416347
64	0xbd803755	-0.06260554
65	0x3cb3e1bb	0.021958223
66	0x3cea4449	0.028597014
67	0x3cf7eaa7	0.030263258
68	0xbd0a93bf	-0.033832308
69	0xbdb68632	-0.089123145
70	0xbd8e5f89	-0.06951816
71	0xbd43a3fc	-0.04776381
72	0x3d9a1557	0.075236015
73	0xbd99a1d8	-0.07501572
74	0xbdbbc3ba	-0.09168191
75	0x3cb177ac	0.02166351
76	0xbdab2e6b	-0.08358463
77	0xbca9839d	-0.02069264
78	0xbd0dd712	-0.034628935
79	0xbc019eea	-0.007911423
80	0x3d75dc73	0.06002469
81	0x3e008b64	0.12553173
82	0xbcbe2ce4	-0.023214765
83	0xbd989886	-0.074509665
84	0x3d802f06	0.06258969
85	0x3d64cadf	0.055857535
86	0xbdba296e	-0.09089933
87	0xbd776517	-0.06039914
88	0xbce7c2ba	-0.028291095
89	0xbdcad493	-0.099038266
90	0x3c24ba4e	0.010054184
91	0xbbb8fbe2	-0.005645261
92	0x3b5093dd	0.0031826415
93	0xbdb111a4	-0.08645943
94	0x3d6ed5a5	0.058309216
95	0x3b8c9761	0.0042905067
96	0x3d113cd4	0.0354584
97	0xbd873ff3	-0.06603994
98	0xbce98dd3	-0.02851001
99	0xbcef0b1b	-0.0291801
100	0x3d172c8d	0.03690772
101	0xbce226a7	-0.027606321
102	0x3d82bf94	0.06384197
103	0x3cb4d660	0.022074878
104	0xbb9afb69	-0.0047296775
105	0xbbba479f	-0.0056848074
106	0x3ce66c7d	0.028127903
107	0xbcf19076	-0.02948783
108	0x3c51ee0c	0.012813102
109	0xbda24b2d	-0.07924495
110	0x3d402015	0.046905596
111	0xbd694b34	-0.056956485
112	0xbd7a04b6	-0.06103965
113	0x3d2190c5	0.039444704
114	0x3db672da	0.08908625
115	0x3c98527a	0.018594015
116	0xbda10335	-0.0786194
117	0xbd452ed6	-0.04814037
118	0xbdbf9309	-0.093542166
119	0x3d542337	0.051791396
120	0xbd9ff5f2	-0.07810582
121	0xbd6e142d	-0.05812471
122	0x3b6bb744	0.003596739
123	0x3c5c53dd	0.013447729
124	0x3ddca033	0.10772743
125	0x3c75a2de	0.014992444
126	0xbc70a290	-0.014687195
127	0xbd74cc5b	-0.0597652
128	0x3c64d1cb	0.013966034
129	0x3d43809a	0.047730066
130	0xbdc40410	-0.09571087
131	0x3d640275	0.055666406
132	0x3db3ad91	0.087733395
133	0xbcaa7a08	-0.020810142
134	0xbd972ff6	-0.07382195
135	0x3d3c0eac	0.04591243
136	0xbac5d506	-0.0015093393
137	0xbc8fe61a	-0.017565776
138	0xbdc7bddb	-0.09753009
139	0xbd12d0ed	-0.03584378
140	0xbcfab47e	-0.030603644
141	0x3d73bbb2	0.059505172
142	0xbd474009	-0.048645053
143	0x3c5c5cf4	0.013449896
144	0xbdfbda03	-0.12297442
145	0xbd539ef7	-0.051665273
146	0xbc62cf6a	-0.013843397
147	0xbd66856d	-0.05627959
148	0xbd919a64	-0.07109526
149	0xbc82ab98	-0.015950963
150	0xbd63345f	-0.055469867
151	0xbcb97fbc	-0.022643916
152	0xbc74032e	-0.014893336
153	0x3d8ef8cb	0.06981047
154	0x3ca7feb0	0.020507187
155	0xbd4adff0	-0.04952997
156	0xbd0ce713	-0.034400057
157	0xbd282534	-0.041051105
158	0x3bc8f6c6	0.0061329333
159	0x3c2ee470	0.010674581
160	0x3c859c35	0.016309837
161	0x3d88cb99	0.06679458
162	0x3db2bee4	0.08727816
163	0xbd831bf3	-0.06401815
164	0xbc373379	-0.011181706
165	0xbd8d0b3a	-0.06886907
166	0x3c01985a	0.007909859
167	0x3d9f6e60	0.07784724
168	0x3c3c71c1	0.01150173
169	0xbba39000	-0.0049915314
170	0xbdcca05a	-0.09991522
171	0xbdfd1fd1	-0.12359584
172	0xbb85b69f	-0.004080608
173	0x3dc2403a	0.094849065
174	0xbc7c2425	-0.015389477
175	0xbd4fc1b9	-0.050721858
176	0xbd5794f8	-0.052632302
177	0x3a747fe2	0.00093269174
178	0x393d9295	0.0001807905
179	0x3d3d2414	0.046176985
180	0x3d4013c6	0.046893857
181	0x3d128b04	0.035777107
182	0x3d95eee3	0.07320955
183	0xbd7f4e3d	-0.062330473
184	0x3d2adc59	0.041714046
185	0x3d2cdc8a	0.04220251
186	0x3da65a66	0.08122711
187	0xbd4b694e	-0.049660973
188	0x3c45f5d7	0.012082539
189	0xbaef9ffe	-0.0018281934
190	0xba2a530b	-0.000649736
191	0xb9489c92	-0.00019131813
192	0x3ce1f6d5	0.027583519
193	0x3ccbb195	0.024864951
194	0xbc910374	-0.017701842
195	0xbd525f69	-0.05136052
196	0x3d8ed486	0.069741294
197	0xbcdaa54c	-0.026690148
198	0x3d492875	0.04911085
199	0xbd0aa02a	-0.03384415
200	0x3d34e985	0.044168014
201	0x3d8150ac	0.06314215
202	0xbd50d158	-0.050980896
203	0xbd2a4c86	-0.041576885
204	0x3d84e46b	0.0648888
205	0x3d1da665	0.038488764
206	0x3ca6660d	0.020312333
207	0x3c7ed2e1	0.015553207
208	0xbcbbff31	-0.022948833
209	0xbdb6d614	-0.08927551
210	0xbd671476	-0.056415997
211	0x3bc3c72a	0.00597467
212	0xbd0cdbdf	-0.034389373
213	0x3c0ee3ae	0.008721275
214	0x3c7aa55c	0.015298214
215	0x3d710874	0.058845952
216	0xbc088a73	-0.00833379
217	0x3d9299d5	0.071582474
218	0x3dba3359	0.09091825
219	0x3cbefb81	0.023313286
220	0x3bd16636	0.0063903583
221	0xbdd6f587	-0.104960494
222	0xbdbf2d58	-0.093348205
223	0xbd0149e6	-0.031564616
224	0x3deb951d	0.115030505
225	0x3d20a161	0.039216403
226	0x3da81ee1	0.08209015
227	0x3d955a2d	0.0729259
228	0xbcdd2123	-0.02699334
229	0x3dd01d71	0.101618655
230	0xbd87cb2e	-0.0663055
231	0xbd1c973b	-0.038230162
232	0x3dc060e6	0.09393482
233	0xbc2cc031	-0.010543869
234	0x3d10ce42	0.035352953
235	0xbcbb9a5a	-0.022900749
236	0xbdb95586	-0.090495154
237	0xbc539427	-0.01291374
238	0x3d1f0090	0.038818896
239	0x3be98d31	0.007127427
240	0xbd9fee97	-0.07809179
241	0x3755fbe6	1.2754439e-05
242	0xbd6ccbc5	-0.057811517
243	0xbd92fbe5	-0.07176951
244	0x3d350d8d	0.044202376
245	0xbd016e73	-0.031599473
246	0xbd838e8b	-0.06423672
247	0xbdb4ab3c	-0.08821723
248	0xbd0cc098	-0.03436336
249	0x3c59245b	0.013253297
250	0x3c88575c	0.016643219
251	0x3d913d4b	0.07091769
252	0x3cc7a425	0.024370262
253	0x3d917bae	0.07103668
254	0xbd49c83f	-0.049263235
255	0x3c8d3a5d	0.017239744

enc_3.c1.conv.conv.bias f4 [32]
0	0x3d7a8d2b	0.061169785
1	0x3ca9d779	0.020732628
2	0x3dab4618	0.08362979
3	0x3cfd98a8	0.030956581
4	0xbba8923e	-0.0051443866
5	0xbc9bcfe0	-0.019020021
6	0x3d909859	0.07060308
7	0x3d1edfd9	0.038787697
8	0xbd75782e	-0.059929065
9	0xbd8f2d96	-0.06991117
10	0x3d6300c3	0.05542065
11	0x3da4a12a	0.08038552
12	0xbd26a8c8	-0.040688306
13	0xbcc1e102	-0.023666862
14	0xbbc99ddc	-0.0061528515
15	0xbd55f872	-0.05223889
16	0x3d4d92c8	0.05018881
17	0x3d9407bd	0.072280385
18	0x3cda1217	0.026619954
19	0xbd6ece1e	-0.058302037
20	0xbbfe66ca	-0.0077637183
21	0xbd84007e	-0.064454064
22	0xbd9c6b22	-0.076376215
23	0xbd459f49	-0.04824761
24	0xbd77e31f	-0.060519334
25	0xbd8e7aff	-0.069570534
26	0xbd5abf1f	-0.053404924
27	0x3d470fdf	0.04859912
28	0xbdaa9692	-0.083295
29	0xbca9651a	-0.020678092
30	0x3b75e58c	0.0037520854
31	0x3d7855e9	0.060628805

enc_3.c1.conv.norm.weight f4 [32]
0	0x3f8573d1	1.0425969
1	0x3f7c7c2f	0.9862699
2	0x3f7a2e1b	0.977266
3	0x3f7a8a3f	0.97867197
4	0x3f79e644	0.9761698
5	0x3f7f4270	0.9971075
6	0x3f816b53	1.0110878
7	0x3f809a1b	1.0047029
8	0x3f81df36	1.0146244
9	0x3f7f0ece	0.99631965
10	0x3f826ec2	1.0190051
11	0x3f80c2e8	1.0059481
12	0x3f81ce25	1.0141035
13	0x3f7fc611	0.999116
14	0x3f82af0e	1.0209672
15	0x3f7b4294	0.98148465
16	0x3f80f9d7	1.0076245
17	0x3f7c271f	0.98497194
18	0x3f737187	0.95095104
19	0x3f7a4466	0.9776062
20	0x3f711db3	0.9418594
21	0x3f80ec4e	1.0072114
22	0x3f87460c	1.0568252
23	0x3f822227	1.0166672
24	0x3f828ce8	1.0199251
25	0x3f829bff	1.0203856
26	0x3f7c843c	0.98639274
27	0x3f85d36e	1.0455148
28	0x3f811b9c	1.0086551
29	0x3f7615b0	0.9612684
30	0x3f7d6eb9	0.98997074
31	0x3f81058c	1.0079818

enc_3.c1.conv.norm.bias f4 [32]
0	0x3d960abd	0.07326267
1	0xbc30d959	-0.010794007
2	0x3cc91330	0.024545282
3	0x3b0304b4	0.0019991817
4	0x3d4564ce	0.048191838
5	0x3d937e1c	0.07201788
6	0x3d06a529	0.032872353
7	0x3d07db99	0.03316841
8	0x3d118e9d	0.035536397
9	0x3c53dc9a	0.0129310135
10	0x3d58274f	0.052771863
11	0x3d1bc004	0.038024917
12	0x3d4e73ce	0.05040341
13	0x3d0a9d37	0.033841338
14	0x3d3a5567	0.045491602
15	0x3d5d27ef	0.05399316
16	0x3d55f77c	0.052237973
17	0xbbaf00e6	-0.0053406833
18	0x3d1d9a42	0.03847719
19	0xbacdbb5f	-0.00156961
20	0x3d0eae7f	0.03483438
21	0xbc22b59f	-0.009930997
22	0x3bc1b598	0.0059115402
23	0x3d9fca41	0.07802249
24	0x3d140252	0.036135025
25	0x3d075d2c	0.03304784
26	0x3c7dcc44	0.015490595
27	0x3d362c06	0.044475578
28	0x3d586eff	0.05284023
29	0x3a2e3300	0.0006645173
30	0xbbfc62e9	-0.0077022207
31	0x3d46a93f	0.04850125

enc_3.c1.conv.norm.running_mean f4 [32]
0	0xbfb4bc52	-1.4119971
1	0x3ea2ae80	0.31773758
2	0xbe710df1	-0.23540474
3	0x3f857373	1.0425857
4	0x3ffe0f96	1.9848506
5	0x3f67ce69	0.9054933
6	0x3ed4677c	0.41485202
7	0x3f36d1df	0.7141399
8	0xbfcc0675	-1.593947
9	0xbf93a8ff	-1.1535949
10	0xbf4bcdf0	-0.7961111
11	0xbf65068d	-0.8946312
12	0xbf63e4de	-0.890211
13	0xbf82752d	-1.0192009
14	0x3e423656	0.1896604
15	0xbec89a10	-0.3918004
16	0x3f522d05	0.82099944
17	0x3f32bee9	0.69822556
18	0xbf2b787c	-0.6698072
19	0x3e893260	0.26796246
20	0x3f658724	0.89659333
21	0xbf0b0824	-0.54309297
22	0xbfafd6d2	-1.3737433
23	0x3e44deaf	0.19225572
24	0xbf4c31d6	-0.79763544
25	0xbf2e4929	-0.68080384
26	0xc003c9a0	-2.0591812
27	0x3f40adcd	0.752652
28	0x3e96823e	0.29396242
29	0x3e4fc007	0.20288096
30	0x3f0c5287	0.54813427
31	0xbe0a10f7	-0.13483034

enc_3.c1.conv.norm.running_var f4 [32]
0	0x3e828cad	0.25497952
1	0x3e845620	0.25846958
2	0x3e6b1250	0.22956204
3	0x3e940037	0.28906414
4	0x3e972e06	0.295273
5	0x3e8d0c96	0.27548665
6	0x3e887dc3	0.2665845
7	0x3e868b29	0.26278046
8	0x3e9592e2	0.29213625
9	0x3e8814c9	0.26578358
10	0x3e870bcb	0.26376185
11	0x3ea04e9c	0.31309974
12	0x3ea4dc62	0.3219939
13	0x3e865ba5	0.26241794
14	0x3eb22892	0.34796578
15	0x3e5f92e1	0.21833374
16	0x3e7e814b	0.24854009
17	0x3e85e742	0.26152998
18	0x3e7de8a4	0.24795777
19	0x3e847b19	0.25875166
20	0x3e8305dc	0.25590408
21	0x3e9c33c4	0.30508244
22	0x3ea3b31b	0.31972584
23	0x3e894af2	0.2681499
24	0x3e9eaca5	0.30991092
25	0x3e998569	0.29984596
26	0x3ebc40ee	0.36768287
27	0x3e7b3aef	0.245342
28	0x3e699338	0.22810066
29	0x3e6ad695	0.22933419
30	0x3e965ae0	0.29366207
31	0x3e7c4bee	0.2463834

enc_3.c2.conv.conv.weight f4 [32, 32, 3, 3]
0	0x3d94b34c	0.07260761
1	0x3d0996d1	0.033591095
2	0x3d80eef5	0.062955774
3	0xbb373556	-0.0027955375
4	0x3cf233df	0.02956575
5	0x3d12ef28	0.03587261
6	0xbb76b797	-0.003764605
7	0x3d3cbf35	0.046080787
8	0xbd51d8e6	-0.05123224
9	0xbc1e447f	-0.009659885
10	0x3c4a2305	0.012337451
11	0xbd856fb0	-0.06515443
12	0xbd2fae6e	-0.04289096
13	0xbd1ca2e9	-0.0382413
14	0x3d5a633d	0.053317297
15	0x3d24e1a7	0.04025426
16	0xba930cc7	-0.0011219018
17	0xbd382735	-0.044959266
18	0xbd0c35a8	-0.034230858
19	0x3c5500b2	0.013000654
20	0xbd7d8527	-0.061894562
21	0xbd082782	-0.033240803
22	0xbd5fd0bb	-0.05464242
23	0xbc97a631	-0.018511863
24	0xbd829d2f	-0.06377637
25	0xbcd965e0	-0.026537836
26	0xbd9670fd	-0.073457696
27	0xbd148602	-0.036260612
28	0xbc808c8f	-0.015692024
29	0x3d4a4222	0.049379475
30	0xbcd09b56	-0.025464695
31	0x3c99e0f3	0.018784022
32	0x3d221857	0.039573994
33	0xbcf0d3c3	-0.02939785
34	0xbc867bc5	-0.01641644
35	0x3c4499ee	0.01199959
36	0xbd02c980	-0.031930447
37	0x3d33d834	0.04390736
38	0x3c5011ed	0.012699586
39	0xbc57c8a1	-0.013170392
40	0xbb2f4817	-0.002674585
41	0x3d0000c9	0.03125075
42	0xbdb83b05	-0.08995632
43	0xbc3c1683	-0.011479977
44	0x3d0f602a	0.03500382
45	0xbd2f01ae	-0.04272621
46	0xbd39934e	-0.045306496
47	0x3cb81da8	0.022475079
48	0xbd2f3aa2	-0.042780526
49	0x3d224d9d	0.0396248
50	0xbcfa7eee	-0.030578103
51	0x3d0e7211	0.03477675
52	0x3d27745a	0.040882446
53	0xbc681cdb	-0.014167036
54	0x3cfd4ceb	0.030920466
55	0xbc43ce8c	-0.0119511
56	0x3d7675dc	0.060170993
57	0xbcb3de43	-0.021956569
58	0xbbd989e3	-0.006638752
59	0xbb98dd3a	-0.004665044
60	0x3d550bb5	0.052013118
61	0xbce9d8a7	-0.02854569
62	0xbbeeb1f8	-0.007284399
63	0x3d469522	0.048482068
64	0xbb66d181	-0.003522009
65	0xbd5e5ce6	-0.054287814
66	0x3db260b1	0.08709849
67	0x3da17d0d	0.0788518
68	0x3b57bd6c	0.00329193
69	0x3bc7f54e	0.0061022406
70	0xba2ef6b2	-0.00066743337
71	0x3cc2ed29	0.023794727
72	0x3c916426	0.01774795
73	0x3d2d730b	0.04234604
74	0x3d844cd5	0.06459967
75	0xbd052753	-0.032508206
76	0x3c9ace32	0.01889715
77	0xbca584d2	-0.020204935
78	0x3c8c5097	0.017128272
79	0xbad596b0	-0.0016295519
80	0x3d6f614a	0.05844239
81	0x3c3a7704	0.011380915
82	0x3d5790f7	0.052628484
83	0x3d59290b	0.053017657
84	0xbd64872b	-0.05579297
85	0x3cbdb153	0.023155844
86	0xbcea5511	-0.028605016
87	0x3d4ae551	0.0495351
88	0x3c7790e0	0.0151102245
89	0xbcca79d1	-0.02471629
90	0x3d73ca66	0.059519194
91	0x3d209bdb	0.039211135
92	0x3db2cf39	0.08730931
93	0xbd5b37e7	-0.05352011
94	0xbd123841	-0.03569818
95	0x3cb5593b	0.022137275
96	0xbc88c204	-0.016694076
97	0xbdbabc4f	-0.09117948
98	0xbd87e83f	-0.06636094
99	0x3c3e6b36	0.011622241
100	0x3ca5e2b2	0.020249698
101	0x3da8a77e	0.082350716
102	0xbc98fed1	-0.018676193
103	0xbdd4039b	-0.1035225
104	0xbd3634c6	-0.044483922
105	0x3b85a1aa	0.0040781097
106	0xbde744bd	-0.11292408
107	0x3caa623f	0.0207988
108	0xbd889da1	-0.0667069
109	0x3d1c4da0	0.038159966
110	0xbcf5dbc8	-0.030012026
111	0x3ce05c21	0.02738768
112	0x3b492569	0.0030692464
113	0x3d8cad5f	0.068690054
114	0x3d589f8a	0.052886523
115	0xbd5661d5	-0.052339394
116	0x3cb5f564	0.022211738
117	0xbd9d22d4	-0.076726586
118	0xbd209e07	-0.039213207
119	0x3c3ab1d4	0.011394937
120	0x3d90ff29	0.07079918
121	0x3c42e5eb	0.011895637
122	0x3de0dd33	0.109796904
123	0xbcf68c03	-0.03009606
124	0xbd8297ad	-0.06376586
125	0x3cfdeead	0.030997599
126	0x3b7531eb	0.0037413787
127	0x3cb70f61	0.0223462
128	0xbadf106b	-0.0017018443
129	0xbd052708	-0.032507926
130	0x3cc47c53	0.023985064
131	0xbc293e9c	-0.010329869
132	0xbb8c7e95	-0.0042875507
133	0xbd3ccdd8	-0.046094745
134	0xbd91eda5	-0.07125405
135	0x3ce7f140	0.02831328
136	0xbca410a9	-0.020027475
137	0x3781f2ed	1.549112e-05
138	0x3d3d1cea	0.046170153
139	0xbda7a286	-0.08185296
140	0xbcd32fb6	-0.025779586
141	0x3d305296	0.04304751
142	0x3b92ef97	0.0044841277
143	0x3bba67da	0.0056886496
144	0xbd335079	-0.043777917
145	0xbd33fbd5	-0.043941338
146	0xb9e5b180	-0.00043810531
147	0x3acfd2a5	0.0015855624
148	0x3c134613	0.008988875
149	0xbd03f2ad	-0.032213856
150	0xbccb89a8	-0.024845913
151	0xbdd79105	-0.10525707
152	0xbd2d1cd0	-0.042263806
153	0xbd28c556	-0.04120382
154	0x3c6c8023	0.014434847
155	0xbc4018f8	-0.011724703
156	0xbd444b2e	-0.04792326
157	0xbd345465	-0.044025797
158	0x3ce196cf	0.027537731
159	0xbd5ecaa7	-0.054392483
160	0xbd230c3f	-0.0398066
161	0x3b5aa762	0.0033363928
162	0xbd8a877b	-0.06764122
163	0xbbc2c738	-0.005944159
164	0xbb409c2e	-0.0029389965
165	0xbc119e59	-0.008887851
166	0xbd0806aa	-0.03320948
167	0xbcd751d8	-0.026284143
168	0xbd993fb3	-0.07482853
169	0x3c98d7d0	0.018657595
170	0x3d34e10c	0.044159934
171	0x3c23cec5	0.009998028
172	0xbd02ec72	-0.031963773
173	0xbce465cd	-0.027880574
174	0x3dd236b2	0.102643386
175	0x3d039e30	0.03213328
176	0xbd02a9b8	-0.031900138
177	0x3d731459	0.059345577
178	0xbd8083c1	-0.0627513
179	0x3c9c4195	0.01907424
180	0x3c3481d9	0.011017286
181	0xbc87d293	-0.016579902
182	0xbc0f1e4e	-0.008735253
183	0x3d3980ac	0.045288727
184	0xbd8dafbb	-0.069182836
185	0xbd3e23e6	-0.046420954
186	0xbc2411b2	-0.0100139845
187	0x3cce7d1a	0.025206137
188	0x3cfd0cf9	0.030889975
189	0xbd56beb9	-0.05242798
190	0xbc5af295	-0.0133635
191	0x3c3f23e3	0.011666271
192	0xbd124e15	-0.035718996
193	0xbd286ddc	-0.041120395
194	0x3d908ac6	0.07057719
195	0x3c1c2193	0.009529489
196	0xbd34689b	-0.044045072
197	0x3d177df2	0.036985345
198	0xbd224002	-0.039611824
199	0xbb074d4b	-0.0020645435
200	0xbc44d331	-0.012013243
201	0x3ce234f4	0.02761314
202	0x3dff06ae	0.12452446
203	0x3d07cfb4	0.033157066
204	0x3d995e78	0.074887216
205	0xbcecdf7e	-0.028915163
206	0xbd88a7fd	-0.06672666
207	0x3b6aca8a	0.003582629
208	0xbbaf8b9d	-0.0053572194
209	0x3c8b72f7	0.017022593
210	0xbc77896b	-0.015108447
211	0xbb09d47f	-0.0021031199
212	0x3d084443	0.033268224
213	0xbc3cc5a2	-0.011521729
214	0x3bda240e	0.00665713
215	0xbcb5a23d	-0.022172088
216	0x3d86847c	0.06568238
217	0x3cef211f	0.029190598
218	0x3d93f162	0.072237745
219	0x3c026a4c	0.007959913
220	0xbb1349d3	-0.0022474423
221	0x3c2d4b47	0.01057703
222	0xbd2c90c8	-0.04213026
223	0x39ce351f	0.0003933096
224	0x3d7beecc	0.06150703
225	0xbce673e8	-0.02813144
226	0xbce163fd	-0.027513498
227	0xbcfc8b1f	-0.030828057
228	0xbc9c33e3	-0.01906771
229	0x3d9f2aae	0.077718124
230	0x3d63fa7a	0.055658795
231	0x3b542012	0.0032367748
232	0x38b1738a	8.4615385e-05
233	0x3c6d61ed	0.014488679
234	0x3d750953	0.059823345
235	0x3d585be9	0.052822027
236	0xbcb9b314	-0.022668399
237	0x3d065ece	0.032805257
238	0xbaf15189	-0.001841114
239	0xbc47a6b4	-0.012185741
240	0x3cb81e67	0.022475434
241	0x3d15abd7	0.036540832
242	0x3b616f95	0.0034398783
243	0xbcefafe4	-0.029258676
244	0x3d5df9c4	0.054193273
245	0x3d1fc3af	0.039004978
246	0xbc81d5d2	-0.015849028
247	0xbdab4dd4	-0.08364454
248	0x3bc99c0b	0.006152635
249	0x3d894473	0.06702509
250	0x3d1a9b99	0.037746046
251	0x3cd80e16	0.026373904
252	0x3d170f64	0.036879912
253	0x3ce7d658	0.02830045
254	0xbd491406	-0.04909136
255	0xbcd11da7	-0.025526835

enc_3.c2.conv.conv.bias f4 [32]
0	0xbc3127e2	-0.010812731
1	0xbc87bbfa	-0.016569126
2	0xbd49a307	-0.04922774
3	0x3d4eb0a9	0.050461445
4	0xbd6ddf5b	-0.058074336
5	0x3c982fea	0.018577535
6	0xbbe2bf66	-0.006919789
7	0x3d3c8ad4	0.046030834
8	0xbcdd2630	-0.026995748
9	0xbc9b276d	-0.018939698
10	0x3b4dc101	0.0031395557
11	0xbcc71a74	-0.024304606
12	0x3d4a92b4	0.049456313
13	0xbc985bcd	-0.018598462
14	0x3d1c34a1	0.03813613
15	0xbc6717bd	-0.014104781
16	0xbc04ef17	-0.008113644
17	0x3b3b2f69	0.0028562194
18	0xbd42e7ca	-0.047584333
19	0x3b83aa6c	0.0040181186
20	0xbd040d2b	-0.03223912
21	0xbc9ad31b	-0.018899491
22	0xbc4fe720	-0.012689382
23	0x3d52a0a9	0.05142275
24	0xbd5e89a9	-0.0543305
25	0xbaf839c1	-0.001893811
26	0xbcffcc7f	-0.031225441
27	0x3d02088c	0.031746432
28	0xbcd8761d	-0.026423508
29	0x3d3639b1	0.044488613
30	0x3cd3c41d	0.02585035
31	0x3d2d917f	0.042375084

enc_3.c2.conv.norm.weight f4 [32]
0	0x3f80f3ab	1.0074362
1	0x3f84b8c8	1.0368891
2	0x3f760bad	0.96111566
3	0x3f7d1eee	0.9887532
4	0x3f879e0f	1.0595111
5	0x3f781f57	0.9692282
6	0x3f769208	0.96316576
7	0x3f83de2a	1.0302174
8	0x3f83373b	1.025123
9	0x3f78302c	0.96948504
10	0x3f81c181	1.0137178
11	0x3f8285a7	1.0197037
12	0x3f7aa6b2	0.97910607
13	0x3f83c24b	1.0293669
14	0x3f820a5b	1.015941
15	0x3f804794	1.0021844
16	0x3f788fd9	0.97094494
17	0x3f81188f	1.008562
18	0x3f7f1fcc	0.99657893
19	0x3f7d67ea	0.98986685
20	0x3f7b94a5	0.9827369
21	0x3f7d8384	0.990288
22	0x3f82cfac	1.0219626
23	0x3f838e54	1.027781
24	0x3f7ede15	0.9955762
25	0x3f7bd40a	0.9837042
26	0x3f7c1d47	0.98482174
27	0x3f751c9c	0.9574678
28	0x3f780897	0.9688811
29	0x3f7f3a0e	0.9969796
30	0x3f845dd4	1.0341134
31	0x3f812c9c	1.0091739

enc_3.c2.conv.norm.bias f4 [32]
0	0x3d62433a	0.055239893
1	0x3d26abc7	0.040691163
2	0x3d9a2232	0.075260535
3	0x3e38d305	0.18049248
4	0x3c23a755	0.0099886255
5	0xbc5f3bf0	-0.01362513
6	0x3d8542f0	0.06506908
7	0xbd19e0f3	-0.037568044
8	0x3b126dc8	0.0022343267
9	0x3b14c3f5	0.0022699807
10	0xbc854fc7	-0.016273392
11	0x3d71cff3	0.059036206
12	0x3c152b28	0.0091045275
13	0xbd0ac00c	-0.033874556
14	0xbd378752	-0.044806786
15	0x3be2a3d9	0.006916505
16	0x3de684b1	0.112557776
17	0xbcab2e58	-0.020896122
18	0x3d19ae51	0.037519757
19	0x3d13ad8d	0.036054183
20	0x3cb98d1a	0.02265029
21	0x3d2113e5	0.039325614
22	0x3d669ae3	0.056300055
23	0xbbd29b6d	-0.0064272196
24	0x3d0ceb6d	0.034404207
25	0x3cd27dbe	0.025694724
26	0xbb80e4c4	-0.003933521
27	0x3d3596aa	0.044333138
28	0xbdcac7f1	-0.09901417
29	0x3d4c40fa	0.049866654
30	0xbd94eb36	-0.072714254
31	0x3bbb98d5	0.005725006

enc_3.c2.conv.norm.running_mean f4 [32]
0	0xbdd7c15e	-0.10534929
1	0xbe8e19ee	-0.27754158
2	0x3d19add9	0.03751931
3	0x3e022aa9	0.12711586
4	0xbef3ca2f	-0.4761519
5	0xbf2d2dea	-0.67648184
6	0xbdce0026	-0.10058622
7	0xbd0f3f45	-0.034972448
8	0xbeaf77ce	-0.3427109
9	0xbdb0e7a3	-0.08637931
10	0xbee36781	-0.44414905
11	0x3dab187a	0.08354278
12	0xbda39398	-0.07987136
13	0x3d800004	0.06250003
14	0xbe935a74	-0.28779948
15	0xbdbb137b	-0.09134575
16	0xbea143fe	-0.31497186
17	0x3de7a75b	0.113112174
18	0xbe918320	-0.28420353
19	0xbea41211	-0.32045034
20	0x3e20cb60	0.15702581
21	0xbf2314d1	-0.6370364
22	0xbe4bfbf8	-0.19920337
23	0xbea4c216	-0.32179326
24	0xbd26f2e9	-0.040759
25	0xbe8a8c31	-0.27060083
26	0xbee8cb42	-0.45467573
27	0xbe7164a2	-0.23573545
28	0xbe4ddf7c	-0.20104784
29	0xbea59c99	-0.32346037
30	0xbe485439	-0.19563378
31	0xbf2448e3	-0.64173716

enc_3.c2.conv.norm.running_var f4 [32]
0	0x3e99ad84	0.30015194
1	0x3ea26a36	0.31721658
2	0x3e94c43f	0.29055974
3	0x3e8233c1	0.2543011
4	0x3e98117b	0.29700837
5	0x3e69cbec	0.22831696
6	0x3e8e437b	0.2778586
7	0x3e8b0534	0.27152407
8	0x3e869203	0.26283273
9	0x3e5ac64d	0.21364708
10	0x3e85bd58	0.2612102
11	0x3e9258ef	0.28583476
12	0x3e9b4095	0.3032271
13	0x3ea45d79	0.32102564
14	0x3e7db0dc	0.24774498
15	0x3e8f23cd	0.27957
16	0x3e812be0	0.25228786
17	0x3e8942c0	0.2680874
18	0x3ea225b8	0.31669402
19	0x3e870647	0.26371977
20	0x3e79bed4	0.24389201
21	0x3ea06012	0.31323296
22	0x3e84d75d	0.2594556
23	0x3e8a4a7d	0.27009955
24	0x3e70a706	0.23501214
25	0x3e7c7a83	0.2465611
26	0x3e87ef77	0.26549885
27	0x3e4d81cd	0.20069046
28	0x3e4ad42b	0.19807498
29	0x3e7bafbc	0.24578756
30	0x3e833a3a	0.2563036
31	0x3e814d9b	0.2525452
